…
                        ToTensor(scaling=False, normalize=None),
                        <detnet.nn.torchvision_det.TorchVisionTrans object at 0x7fe1812cdc10>)

 test TransformedDataset
  len: 2495
  dataset: Dataset
             No. of images: 2495
             No. of classes: 4
             No. of bboxes 25466
             Root Location: /data/waymo/det2d/validation

    Transforms: ToTensor(scaling=False, normalize=None)

logging into /home/gitlab-runner/runs/waymo_2d_detection/12442-train_lambda
#0 process initialized
Training Detectron2Det(
  (model): GeneralizedRCNN(
    (backbone): FPN(
      (fpn_lateral2): Conv2d(256, 256, kernel_size=(1, 1), stride=(1, 1))
      (fpn_output2): Conv2d(256, 256, kernel_size=(3, 3), stride=(1, 1), padding=(1, 1))
      (fpn_lateral3): Conv2d(512, 256, kernel_size=(1, 1), stride=(1, 1))
      (fpn_output3): Conv2d(256, 256, kernel_size=(3, 3), stride=(1, 1), padding=(1, 1))
      (fpn_lateral4): Conv2d(1024, 256, kernel_size=(1, 1), stride=(1, 1))
      (fpn_output4): Conv2d(256, 256, kernel_size=(3, 3), stride=(1, 1), padding=(1, 1))
      (fpn_lateral5): Conv2d(2048, 256, kernel_size=(1, 1), stride=(1, 1))
      (fpn_output5): Conv2d(256, 256, kernel_size=(3, 3), stride=(1, 1), padding=(1, 1))
      (top_block): LastLevelMaxPool()
      (bottom_up): ResNet(
        (stem): BasicStem(
          (conv1): Conv2d(
            3, 64, kernel_size=(7, 7), stride=(2, 2), padding=(3, 3), bias=False
            (norm): FrozenBatchNorm2d(num_features=64, eps=1e-05)
          )
        )
        (res2): Sequential(
          (0): BottleneckBlock(
            (shortcut): Conv2d(
              64, 256, kernel_size=(1, 1), stride=(1, 1), bias=False
              (norm): FrozenBatchNorm2d(num_features=256, eps=1e-05)
            )
            (conv1): Conv2d(
              64, 256, kernel_size=(1, 1), stride=(1, 1), bias=False
              (norm): FrozenBatchNorm2d(num_features=256, eps=1e-05)
            )
            (conv2): Conv2d(
              256, 256, kernel_size=(3, 3), stride=(1, 1), padding=(1, 1), groups=32, bias=False
              (norm): FrozenBatchNorm2d(num_features=256, eps=1e-05)
            )
            (conv3): Conv2d(
              256, 256, kernel_size=(1, 1), stride=(1, 1), bias=False
              (norm): FrozenBatchNorm2d(num_features=256, eps=1e-05)
            )
          )
          (1): BottleneckBlock(
            (conv1): Conv2d(
              256, 256, kernel_size=(1, 1), stride=(1, 1), bias=False
              (norm): FrozenBatchNorm2d(num_features=256, eps=1e-05)
            )
            (conv2): Conv2d(
              256, 256, kernel_size=(3, 3), stride=(1, 1), padding=(1, 1), groups=32, bias=False
              (norm): FrozenBatchNorm2d(num_features=256, eps=1e-05)
            )
            (conv3): Conv2d(
              256, 256, kernel_size=(1, 1), stride=(1, 1), bias=False
              (norm): FrozenBatchNorm2d(num_features=256, eps=1e-05)
            )
          )
          (2): BottleneckBlock(
            (conv1): Conv2d(
              256, 256, kernel_size=(1, 1), stride=(1, 1), bias=False
              (norm): FrozenBatchNorm2d(num_features=256, eps=1e-05)
            )
            (conv2): Conv2d(
              256, 256, kernel_size=(3, 3), stride=(1, 1), padding=(1, 1), groups=32, bias=False
              (norm): FrozenBatchNorm2d(num_features=256, eps=1e-05)
            )
            (conv3): Conv2d(
              256, 256, kernel_size=(1, 1), stride=(1, 1), bias=False
              (norm): FrozenBatchNorm2d(num_features=256, eps=1e-05)
            )
          )
        )
        (res3): Sequential(
          (0): DeformBottleneckBlock(
            (shortcut): Conv2d(
              256, 512, kernel_size=(1, 1), stride=(2, 2), bias=False
              (norm): FrozenBatchNorm2d(num_features=512, eps=1e-05)
            )
            (conv1): Conv2d(
              256, 512, kernel_size=(1, 1), stride=(1, 1), bias=False
              (norm): FrozenBatchNorm2d(num_features=512, eps=1e-05)
            )
            (conv2_offset): Conv2d(512, 18, kernel_size=(3, 3), stride=(2, 2), padding=(1, 1))
            (conv2): DeformConv(
              in_channels=512, out_channels=512, kernel_size=(3, 3), stride=(2, 2), padding=(1, 1), dilation=(1, 1), groups=32, deformable_groups=1, bias=False
              (norm): FrozenBatchNorm2d(num_features=512, eps=1e-05)
            )
            (conv3): Conv2d(
              512, 512, kernel_size=(1, 1), stride=(1, 1), bias=False
              (norm): FrozenBatchNorm2d(num_features=512, eps=1e-05)
            )
          )
          (1): DeformBottleneckBlock(
            (conv1): Conv2d(
              512, 512, kernel_size=(1, 1), stride=(1, 1), bias=False
              (norm): FrozenBatchNorm2d(num_features=512, eps=1e-05)
            )
            (conv2_offset): Conv2d(512, 18, kernel_size=(3, 3), stride=(1, 1), padding=(1, 1))
            (conv2): DeformConv(
              in_channels=512, out_channels=512, kernel_size=(3, 3), stride=(1, 1), padding=(1, 1), dilation=(1, 1), groups=32, deformable_groups=1, bias=False
              (norm): FrozenBatchNorm2d(num_features=512, eps=1e-05)
            )
            (conv3): Conv2d(
              512, 512, kernel_size=(1, 1), stride=(1, 1), bias=False
              (norm): FrozenBatchNorm2d(num_features=512, eps=1e-05)
            )
          )
          (2): DeformBottleneckBlock(
            (conv1): Conv2d(
              512, 512, kernel_size=(1, 1), stride=(1, 1), bias=False
              (norm): FrozenBatchNorm2d(num_features=512, eps=1e-05)
            )
            (conv2_offset): Conv2d(512, 18, kernel_size=(3, 3), stride=(1, 1), padding=(1, 1))
            (conv2): DeformConv(
              in_channels=512, out_channels=512, kernel_size=(3, 3), stride=(1, 1), padding=(1, 1), dilation=(1, 1), groups=32, deformable_groups=1, bias=False
              (norm): FrozenBatchNorm2d(num_features=512, eps=1e-05)
            )
            (conv3): Conv2d(
              512, 512, kernel_size=(1, 1), stride=(1, 1), bias=False
              (norm): FrozenBatchNorm2d(num_features=512, eps=1e-05)
            )
          )
          (3): DeformBottleneckBlock(
            (conv1): Conv2d(
              512, 512, kernel_size=(1, 1), stride=(1, 1), bias=False
              (norm): FrozenBatchNorm2d(num_features=512, eps=1e-05)
            )
            (conv2_offset): Conv2d(512, 18, kernel_size=(3, 3), stride=(1, 1), padding=(1, 1))
            (conv2): DeformConv(
              in_channels=512, out_channels=512, kernel_size=(3, 3), stride=(1, 1), padding=(1, 1), dilation=(1, 1), groups=32, deformable_groups=1, bias=False
              (norm): FrozenBatchNorm2d(num_features=512, eps=1e-05)
            )
            (conv3): Conv2d(
              512, 512, kernel_size=(1, 1), stride=(1, 1), bias=False
              (norm): FrozenBatchNorm2d(num_features=512, eps=1e-05)
            )
          )
          (4): DeformBottleneckBlock(
            (conv1): Conv2d(
              512, 512, kernel_size=(1, 1), stride=(1, 1), bias=False
              (norm): FrozenBatchNorm2d(num_features=512, eps=1e-05)
            )
            (conv2_offset): Conv2d(512, 18, kernel_size=(3, 3), stride=(1, 1), padding=(1, 1))
            (conv2): DeformConv(
              in_channels=512, out_channels=512, kernel_size=(3, 3), stride=(1, 1), padding=(1, 1), dilation=(1, 1), groups=32, deformable_groups=1, bias=False
              (norm): FrozenBatchNorm2d(num_features=512, eps=1e-05)
            )
            (conv3): Conv2d(
              512, 512, kernel_size=(1, 1), stride=(1, 1), bias=False
              (norm): FrozenBatchNorm2d(num_features=512, eps=1e-05)
            )
          )
          (5): DeformBottleneckBlock(
            (conv1): Conv2d(
              512, 512, kernel_size=(1, 1), stride=(1, 1), bias=False
              (norm): FrozenBatchNorm2d(num_features=512, eps=1e-05)
            )
            (conv2_offset): Conv2d(512, 18, kernel_size=(3, 3), stride=(1, 1), padding=(1, 1))
            (conv2): DeformConv(
              in_channels=512, out_channels=512, kernel_size=(3, 3), stride=(1, 1), padding=(1, 1), dilation=(1, 1), groups=32, deformable_groups=1, bias=False
              (norm): FrozenBatchNorm2d(num_features=512, eps=1e-05)
            )
            (conv3): Conv2d(
              512, 512, kernel_size=(1, 1), stride=(1, 1), bias=False
              (norm): FrozenBatchNorm2d(num_features=512, eps=1e-05)
            )
          )
          (6): DeformBottleneckBlock(
            (conv1): Conv2d(
              512, 512, kernel_size=(1, 1), stride=(1, 1), bias=False
              (norm): FrozenBatchNorm2d(num_features=512, eps=1e-05)
            )
            (conv2_offset): Conv2d(512, 18, kernel_size=(3, 3), stride=(1, 1), padding=(1, 1))
            (conv2): DeformConv(
              in_channels=512, out_channels=512, kernel_size=(3, 3), stride=(1, 1), padding=(1, 1), dilation=(1, 1), groups=32, deformable_groups=1, bias=False
              (norm): FrozenBatchNorm2d(num_features=512, eps=1e-05)
            )
            (conv3): Conv2d(
              512, 512, kernel_size=(1, 1), stride=(1, 1), bias=False
              (norm): FrozenBatchNorm2d(num_features=512, eps=1e-05)
            )
          )
          (7): DeformBottleneckBlock(
            (conv1): Conv2d(
              512, 512, kernel_size=(1, 1), stride=(1, 1), bias=False
              (norm): FrozenBatchNorm2d(num_features=512, eps=1e-05)
            )
            (conv2_offset): Conv2d(512, 18, kernel_size=(3, 3), stride=(1, 1), padding=(1, 1))
            (conv2): DeformConv(
              in_channels=512, out_channels=512, kernel_size=(3, 3), stride=(1, 1), padding=(1, 1), dilation=(1, 1), groups=32, deformable_groups=1, bias=False
              (norm): FrozenBatchNorm2d(num_features=512, eps=1e-05)
            )
            (conv3): Conv2d(
              512, 512, kernel_size=(1, 1), stride=(1, 1), bias=False
              (norm): FrozenBatchNorm2d(num_features=512, eps=1e-05)
            )
          )
        )
        (res4): Sequential(
          (0): DeformBottleneckBlock(
            (shortcut): Conv2d(
              512, 1024, kernel_size=(1, 1), stride=(2, 2), bias=False
              (norm): FrozenBatchNorm2d(num_features=1024, eps=1e-05)
            )
            (conv1): Conv2d(
              512, 1024, kernel_size=(1, 1), stride=(1, 1), bias=False
              (norm): FrozenBatchNorm2d(num_features=1024, eps=1e-05)
            )
            (conv2_offset): Conv2d(1024, 18, kernel_size=(3, 3), stride=(2, 2), padding=(1, 1))
            (conv2): DeformConv(
              in_channels=1024, out_channels=1024, kernel_size=(3, 3), stride=(2, 2), padding=(1, 1), dilation=(1, 1), groups=32, deformable_groups=1, bias=False
              (norm): FrozenBatchNorm2d(num_features=1024, eps=1e-05)
            )
            (conv3): Conv2d(
              1024, 1024, kernel_size=(1, 1), stride=(1, 1), bias=False
              (norm): FrozenBatchNorm2d(num_features=1024, eps=1e-05)
            )
          )
          (1): DeformBottleneckBlock(
            (conv1): Conv2d(
              1024, 1024, kernel_size=(1, 1), stride=(1, 1), bias=False
              (norm): FrozenBatchNorm2d(num_features=1024, eps=1e-05)
            )
            (conv2_offset): Conv2d(1024, 18, kernel_size=(3, 3), stride=(1, 1), padding=(1, 1))
            (conv2): DeformConv(
              in_channels=1024, out_channels=1024, kernel_size=(3, 3), stride=(1, 1), padding=(1, 1), dilation=(1, 1), groups=32, deformable_groups=1, bias=False
              (norm): FrozenBatchNorm2d(num_features=1024, eps=1e-05)
            )
            (conv3): Conv2d(
              1024, 1024, kernel_size=(1, 1), stride=(1, 1), bias=False
              (norm): FrozenBatchNorm2d(num_features=1024, eps=1e-05)
            )
          )
          (2): DeformBottleneckBlock(
            (conv1): Conv2d(
              1024, 1024, kernel_size=(1, 1), stride=(1, 1), bias=False
              (norm): FrozenBatchNorm2d(num_features=1024, eps=1e-05)
            )
            (conv2_offset): Conv2d(1024, 18, kernel_size=(3, 3), stride=(1, 1), padding=(1, 1))
            (conv2): DeformConv(
              in_channels=1024, out_channels=1024, kernel_size=(3, 3), stride=(1, 1), padding=(1, 1), dilation=(1, 1), groups=32, deformable_groups=1, bias=False
              (norm): FrozenBatchNorm2d(num_features=1024, eps=1e-05)
            )
            (conv3): Conv2d(
              1024, 1024, kernel_size=(1, 1), stride=(1, 1), bias=False
              (norm): FrozenBatchNorm2d(num_features=1024, eps=1e-05)
            )
          )
          (3): DeformBottleneckBlock(
            (conv1): Conv2d(
              1024, 1024, kernel_size=(1, 1), stride=(1, 1), bias=False
              (norm): FrozenBatchNorm2d(num_features=1024, eps=1e-05)
            )
            (conv2_offset): Conv2d(1024, 18, kernel_size=(3, 3), stride=(1, 1), padding=(1, 1))
            (conv2): DeformConv(
              in_channels=1024, out_channels=1024, kernel_size=(3, 3), stride=(1, 1), padding=(1, 1), dilation=(1, 1), groups=32, deformable_groups=1, bias=False
              (norm): FrozenBatchNorm2d(num_features=1024, eps=1e-05)
            )
            (conv3): Conv2d(
              1024, 1024, kernel_size=(1, 1), stride=(1, 1), bias=False
              (norm): FrozenBatchNorm2d(num_features=1024, eps=1e-05)
            )
          )
          (4): DeformBottleneckBlock(
            (conv1): Conv2d(
              1024, 1024, kernel_size=(1, 1), stride=(1, 1), bias=False
              (norm): FrozenBatchNorm2d(num_features=1024, eps=1e-05)
            )
            (conv2_offset): Conv2d(1024, 18, kernel_size=(3, 3), stride=(1, 1), padding=(1, 1))
            (conv2): DeformConv(
              in_channels=1024, out_channels=1024, kernel_size=(3, 3), stride=(1, 1), padding=(1, 1), dilation=(1, 1), groups=32, deformable_groups=1, bias=False
              (norm): FrozenBatchNorm2d(num_features=1024, eps=1e-05)
            )
            (conv3): Conv2d(
              1024, 1024, kernel_size=(1, 1), stride=(1, 1), bias=False
              (norm): FrozenBatchNorm2d(num_features=1024, eps=1e-05)
            )
          )
          (5): DeformBottleneckBlock(
            (conv1): Conv2d(
              1024, 1024, kernel_size=(1, 1), stride=(1, 1), bias=False
              (norm): FrozenBatchNorm2d(num_features=1024, eps=1e-05)
            )
            (conv2_offset): Conv2d(1024, 18, kernel_size=(3, 3), stride=(1, 1), padding=(1, 1))
            (conv2): DeformConv(
              in_channels=1024, out_channels=1024, kernel_size=(3, 3), stride=(1, 1), padding=(1, 1), dilation=(1, 1), groups=32, deformable_groups=1, bias=False
              (norm): FrozenBatchNorm2d(num_features=1024, eps=1e-05)
            )
            (conv3): Conv2d(
              1024, 1024, kernel_size=(1, 1), stride=(1, 1), bias=False
              (norm): FrozenBatchNorm2d(num_features=1024, eps=1e-05)
            )
          )
          (6): DeformBottleneckBlock(
            (conv1): Conv2d(
              1024, 1024, kernel_size=(1, 1), stride=(1, 1), bias=False
              (norm): FrozenBatchNorm2d(num_features=1024, eps=1e-05)
            )
            (conv2_offset): Conv2d(1024, 18, kernel_size=(3, 3), stride=(1, 1), padding=(1, 1))
            (conv2): DeformConv(
              in_channels=1024, out_channels=1024, kernel_size=(3, 3), stride=(1, 1), padding=(1, 1), dilation=(1, 1), groups=32, deformable_groups=1, bias=False
              (norm): FrozenBatchNorm2d(num_features=1024, eps=1e-05)
            )
            (conv3): Conv2d(
              1024, 1024, kernel_size=(1, 1), stride=(1, 1), bias=False
              (norm): FrozenBatchNorm2d(num_features=1024, eps=1e-05)
            )
          )
          (7): DeformBottleneckBlock(
            (conv1): Conv2d(
              1024, 1024, kernel_size=(1, 1), stride=(1, 1), bias=False
              (norm): FrozenBatchNorm2d(num_features=1024, eps=1e-05)
            )
            (conv2_offset): Conv2d(1024, 18, kernel_size=(3, 3), stride=(1, 1), padding=(1, 1))
            (conv2): DeformConv(
              in_channels=1024, out_channels=1024, kernel_size=(3, 3), stride=(1, 1), padding=(1, 1), dilation=(1, 1), groups=32, deformable_groups=1, bias=False
              (norm): FrozenBatchNorm2d(num_features=1024, eps=1e-05)
            )
            (conv3): Conv2d(
              1024, 1024, kernel_size=(1, 1), stride=(1, 1), bias=False
              (norm): FrozenBatchNorm2d(num_features=1024, eps=1e-05)
            )
          )
          (8): DeformBottleneckBlock(
            (conv1): Conv2d(
              1024, 1024, kernel_size=(1, 1), stride=(1, 1), bias=False
              (norm): FrozenBatchNorm2d(num_features=1024, eps=1e-05)
            )
            (conv2_offset): Conv2d(1024, 18, kernel_size=(3, 3), stride=(1, 1), padding=(1, 1))
            (conv2): DeformConv(
              in_channels=1024, out_channels=1024, kernel_size=(3, 3), stride=(1, 1), padding=(1, 1), dilation=(1, 1), groups=32, deformable_groups=1, bias=False
              (norm): FrozenBatchNorm2d(num_features=1024, eps=1e-05)
            )
            (conv3): Conv2d(
              1024, 1024, kernel_size=(1, 1), stride=(1, 1), bias=False
              (norm): FrozenBatchNorm2d(num_features=1024, eps=1e-05)
            )
          )
          (9): DeformBottleneckBlock(
            (conv1): Conv2d(
              1024, 1024, kernel_size=(1, 1), stride=(1, 1), bias=False
              (norm): FrozenBatchNorm2d(num_features=1024, eps=1e-05)
            )
            (conv2_offset): Conv2d(1024, 18, kernel_size=(3, 3), stride=(1, 1), padding=(1, 1))
            (conv2): DeformConv(
              in_channels=1024, out_channels=1024, kernel_size=(3, 3), stride=(1, 1), padding=(1, 1), dilation=(1, 1), groups=32, deformable_groups=1, bias=False
              (norm): FrozenBatchNorm2d(num_features=1024, eps=1e-05)
            )
            (conv3): Conv2d(
              1024, 1024, kernel_size=(1, 1), stride=(1, 1), bias=False
              (norm): FrozenBatchNorm2d(num_features=1024, eps=1e-05)
            )
          )
          (10): DeformBottleneckBlock(
            (conv1): Conv2d(
              1024, 1024, kernel_size=(1, 1), stride=(1, 1), bias=False
              (norm): FrozenBatchNorm2d(num_features=1024, eps=1e-05)
            )
            (conv2_offset): Conv2d(1024, 18, kernel_size=(3, 3), stride=(1, 1), padding=(1, 1))
            (conv2): DeformConv(
              in_channels=1024, out_channels=1024, kernel_size=(3, 3), stride=(1, 1), padding=(1, 1), dilation=(1, 1), groups=32, deformable_groups=1, bias=False
              (norm): FrozenBatchNorm2d(num_features=1024, eps=1e-05)
            )
            (conv3): Conv2d(
              1024, 1024, kernel_size=(1, 1), stride=(1, 1), bias=False
              (norm): FrozenBatchNorm2d(num_features=1024, eps=1e-05)
            )
          )
          (11): DeformBottleneckBlock(
            (conv1): Conv2d(
              1024, 1024, kernel_size=(1, 1), stride=(1, 1), bias=False
              (norm): FrozenBatchNorm2d(num_features=1024, eps=1e-05)
            )
            (conv2_offset): Conv2d(1024, 18, kernel_size=(3, 3), stride=(1, 1), padding=(1, 1))
            (conv2): DeformConv(
              in_channels=1024, out_channels=1024, kernel_size=(3, 3), stride=(1, 1), padding=(1, 1), dilation=(1, 1), groups=32, deformable_groups=1, bias=False
              (norm): FrozenBatchNorm2d(num_features=1024, eps=1e-05)
            )
            (conv3): Conv2d(
              1024, 1024, kernel_size=(1, 1), stride=(1, 1), bias=False
              (norm): FrozenBatchNorm2d(num_features=1024, eps=1e-05)
            )
          )
          (12): DeformBottleneckBlock(
            (conv1): Conv2d(
              1024, 1024, kernel_size=(1, 1), stride=(1, 1), bias=False
              (norm): FrozenBatchNorm2d(num_features=1024, eps=1e-05)
            )
            (conv2_offset): Conv2d(1024, 18, kernel_size=(3, 3), stride=(1, 1), padding=(1, 1))
            (conv2): DeformConv(
              in_channels=1024, out_channels=1024, kernel_size=(3, 3), stride=(1, 1), padding=(1, 1), dilation=(1, 1), groups=32, deformable_groups=1, bias=False
              (norm): FrozenBatchNorm2d(num_features=1024, eps=1e-05)
            )
            (conv3): Conv2d(
              1024, 1024, kernel_size=(1, 1), stride=(1, 1), bias=False
              (norm): FrozenBatchNorm2d(num_features=1024, eps=1e-05)
            )
          )
          (13): DeformBottleneckBlock(
            (conv1): Conv2d(
              1024, 1024, kernel_size=(1, 1), stride=(1, 1), bias=False
              (norm): FrozenBatchNorm2d(num_features=1024, eps=1e-05)
            )
            (conv2_offset): Conv2d(1024, 18, kernel_size=(3, 3), stride=(1, 1), padding=(1, 1))
            (conv2): DeformConv(
              in_channels=1024, out_channels=1024, kernel_size=(3, 3), stride=(1, 1), padding=(1, 1), dilation=(1, 1), groups=32, deformable_groups=1, bias=False
              (norm): FrozenBatchNorm2d(num_features=1024, eps=1e-05)
            )
            (conv3): Conv2d(
              1024, 1024, kernel_size=(1, 1), stride=(1, 1), bias=False
              (norm): FrozenBatchNorm2d(num_features=1024, eps=1e-05)
            )
          )
          (14): DeformBottleneckBlock(
            (conv1): Conv2d(
              1024, 1024, kernel_size=(1, 1), stride=(1, 1), bias=False
              (norm): FrozenBatchNorm2d(num_features=1024, eps=1e-05)
            )
            (conv2_offset): Conv2d(1024, 18, kernel_size=(3, 3), stride=(1, 1), padding=(1, 1))
            (conv2): DeformConv(
              in_channels=1024, out_channels=1024, kernel_size=(3, 3), stride=(1, 1), padding=(1, 1), dilation=(1, 1), groups=32, deformable_groups=1, bias=False
              (norm): FrozenBatchNorm2d(num_features=1024, eps=1e-05)
            )
            (conv3): Conv2d(
              1024, 1024, kernel_size=(1, 1), stride=(1, 1), bias=False
              (norm): FrozenBatchNorm2d(num_features=1024, eps=1e-05)
            )
          )
          (15): DeformBottleneckBlock(
            (conv1): Conv2d(
              1024, 1024, kernel_size=(1, 1), stride=(1, 1), bias=False
              (norm): FrozenBatchNorm2d(num_features=1024, eps=1e-05)
            )
            (conv2_offset): Conv2d(1024, 18, kernel_size=(3, 3), stride=(1, 1), padding=(1, 1))
            (conv2): DeformConv(
              in_channels=1024, out_channels=1024, kernel_size=(3, 3), stride=(1, 1), padding=(1, 1), dilation=(1, 1), groups=32, deformable_groups=1, bias=False
              (norm): FrozenBatchNorm2d(num_features=1024, eps=1e-05)
            )
            (conv3): Conv2d(
              1024, 1024, kernel_size=(1, 1), stride=(1, 1), bias=False
              (norm): FrozenBatchNorm2d(num_features=1024, eps=1e-05)
            )
          )
          (16): DeformBottleneckBlock(
            (conv1): Conv2d(
              1024, 1024, kernel_size=(1, 1), stride=(1, 1), bias=False
              (norm): FrozenBatchNorm2d(num_features=1024, eps=1e-05)
            )
            (conv2_offset): Conv2d(1024, 18, kernel_size=(3, 3), stride=(1, 1), padding=(1, 1))
            (conv2): DeformConv(
              in_channels=1024, out_channels=1024, kernel_size=(3, 3), stride=(1, 1), padding=(1, 1), dilation=(1, 1), groups=32, deformable_groups=1, bias=False
              (norm): FrozenBatchNorm2d(num_features=1024, eps=1e-05)
            )
            (conv3): Conv2d(
              1024, 1024, kernel_size=(1, 1), stride=(1, 1), bias=False
              (norm): FrozenBatchNorm2d(num_features=1024, eps=1e-05)
            )
          )
          (17): DeformBottleneckBlock(
            (conv1): Conv2d(
              1024, 1024, kernel_size=(1, 1), stride=(1, 1), bias=False
              (norm): FrozenBatchNorm2d(num_features=1024, eps=1e-05)
            )
            (conv2_offset): Conv2d(1024, 18, kernel_size=(3, 3), stride=(1, 1), padding=(1, 1))
            (conv2): DeformConv(
              in_channels=1024, out_channels=1024, kernel_size=(3, 3), stride=(1, 1), padding=(1, 1), dilation=(1, 1), groups=32, deformable_groups=1, bias=False
              (norm): FrozenBatchNorm2d(num_features=1024, eps=1e-05)
            )
            (conv3): Conv2d(
              1024, 1024, kernel_size=(1, 1), stride=(1, 1), bias=False
              (norm): FrozenBatchNorm2d(num_features=1024, eps=1e-05)
            )
          )
          (18): DeformBottleneckBlock(
            (conv1): Conv2d(
              1024, 1024, kernel_size=(1, 1), stride=(1, 1), bias=False
              (norm): FrozenBatchNorm2d(num_features=1024, eps=1e-05)
            )
            (conv2_offset): Conv2d(1024, 18, kernel_size=(3, 3), stride=(1, 1), padding=(1, 1))
            (conv2): DeformConv(
              in_channels=1024, out_channels=1024, kernel_size=(3, 3), stride=(1, 1), padding=(1, 1), dilation=(1, 1), groups=32, deformable_groups=1, bias=False
              (norm): FrozenBatchNorm2d(num_features=1024, eps=1e-05)
            )
            (conv3): Conv2d(
              1024, 1024, kernel_size=(1, 1), stride=(1, 1), bias=False
              (norm): FrozenBatchNorm2d(num_features=1024, eps=1e-05)
            )
          )
          (19): DeformBottleneckBlock(
            (conv1): Conv2d(
              1024, 1024, kernel_size=(1, 1), stride=(1, 1), bias=False
              (norm): FrozenBatchNorm2d(num_features=1024, eps=1e-05)
            )
            (conv2_offset): Conv2d(1024, 18, kernel_size=(3, 3), stride=(1, 1), padding=(1, 1))
            (conv2): DeformConv(
              in_channels=1024, out_channels=1024, kernel_size=(3, 3), stride=(1, 1), padding=(1, 1), dilation=(1, 1), groups=32, deformable_groups=1, bias=False
              (norm): FrozenBatchNorm2d(num_features=1024, eps=1e-05)
            )
            (conv3): Conv2d(
              1024, 1024, kernel_size=(1, 1), stride=(1, 1), bias=False
              (norm): FrozenBatchNorm2d(num_features=1024, eps=1e-05)
            )
          )
          (20): DeformBottleneckBlock(
            (conv1): Conv2d(
              1024, 1024, kernel_size=(1, 1), stride=(1, 1), bias=False
              (norm): FrozenBatchNorm2d(num_features=1024, eps=1e-05)
            )
            (conv2_offset): Conv2d(1024, 18, kernel_size=(3, 3), stride=(1, 1), padding=(1, 1))
            (conv2): DeformConv(
              in_channels=1024, out_channels=1024, kernel_size=(3, 3), stride=(1, 1), padding=(1, 1), dilation=(1, 1), groups=32, deformable_groups=1, bias=False
              (norm): FrozenBatchNorm2d(num_features=1024, eps=1e-05)
            )
            (conv3): Conv2d(
              1024, 1024, kernel_size=(1, 1), stride=(1, 1), bias=False
              (norm): FrozenBatchNorm2d(num_features=1024, eps=1e-05)
            )
          )
          (21): DeformBottleneckBlock(
            (conv1): Conv2d(
              1024, 1024, kernel_size=(1, 1), stride=(1, 1), bias=False
              (norm): FrozenBatchNorm2d(num_features=1024, eps=1e-05)
            )
            (conv2_offset): Conv2d(1024, 18, kernel_size=(3, 3), stride=(1, 1), padding=(1, 1))
            (conv2): DeformConv(
              in_channels=1024, out_channels=1024, kernel_size=(3, 3), stride=(1, 1), padding=(1, 1), dilation=(1, 1), groups=32, deformable_groups=1, bias=False
              (norm): FrozenBatchNorm2d(num_features=1024, eps=1e-05)
            )
            (conv3): Conv2d(
              1024, 1024, kernel_size=(1, 1), stride=(1, 1), bias=False
              (norm): FrozenBatchNorm2d(num_features=1024, eps=1e-05)
            )
          )
          (22): DeformBottleneckBlock(
            (conv1): Conv2d(
              1024, 1024, kernel_size=(1, 1), stride=(1, 1), bias=False
              (norm): FrozenBatchNorm2d(num_features=1024, eps=1e-05)
            )
            (conv2_offset): Conv2d(1024, 18, kernel_size=(3, 3), stride=(1, 1), padding=(1, 1))
            (conv2): DeformConv(
              in_channels=1024, out_channels=1024, kernel_size=(3, 3), stride=(1, 1), padding=(1, 1), dilation=(1, 1), groups=32, deformable_groups=1, bias=False
              (norm): FrozenBatchNorm2d(num_features=1024, eps=1e-05)
            )
            (conv3): Conv2d(
              1024, 1024, kernel_size=(1, 1), stride=(1, 1), bias=False
              (norm): FrozenBatchNorm2d(num_features=1024, eps=1e-05)
            )
          )
          (23): DeformBottleneckBlock(
            (conv1): Conv2d(
              1024, 1024, kernel_size=(1, 1), stride=(1, 1), bias=False
              (norm): FrozenBatchNorm2d(num_features=1024, eps=1e-05)
            )
            (conv2_offset): Conv2d(1024, 18, kernel_size=(3, 3), stride=(1, 1), padding=(1, 1))
            (conv2): DeformConv(
              in_channels=1024, out_channels=1024, kernel_size=(3, 3), stride=(1, 1), padding=(1, 1), dilation=(1, 1), groups=32, deformable_groups=1, bias=False
              (norm): FrozenBatchNorm2d(num_features=1024, eps=1e-05)
            )
            (conv3): Conv2d(
              1024, 1024, kernel_size=(1, 1), stride=(1, 1), bias=False
              (norm): FrozenBatchNorm2d(num_features=1024, eps=1e-05)
            )
          )
          (24): DeformBottleneckBlock(
            (conv1): Conv2d(
              1024, 1024, kernel_size=(1, 1), stride=(1, 1), bias=False
              (norm): FrozenBatchNorm2d(num_features=1024, eps=1e-05)
            )
            (conv2_offset): Conv2d(1024, 18, kernel_size=(3, 3), stride=(1, 1), padding=(1, 1))
            (conv2): DeformConv(
              in_channels=1024, out_channels=1024, kernel_size=(3, 3), stride=(1, 1), padding=(1, 1), dilation=(1, 1), groups=32, deformable_groups=1, bias=False
              (norm): FrozenBatchNorm2d(num_features=1024, eps=1e-05)
            )
            (conv3): Conv2d(
              1024, 1024, kernel_size=(1, 1), stride=(1, 1), bias=False
              (norm): FrozenBatchNorm2d(num_features=1024, eps=1e-05)
            )
          )
          (25): DeformBottleneckBlock(
            (conv1): Conv2d(
              1024, 1024, kernel_size=(1, 1), stride=(1, 1), bias=False
              (norm): FrozenBatchNorm2d(num_features=1024, eps=1e-05)
            )
            (conv2_offset): Conv2d(1024, 18, kernel_size=(3, 3), stride=(1, 1), padding=(1, 1))
            (conv2): DeformConv(
              in_channels=1024, out_channels=1024, kernel_size=(3, 3), stride=(1, 1), padding=(1, 1), dilation=(1, 1), groups=32, deformable_groups=1, bias=False
              (norm): FrozenBatchNorm2d(num_features=1024, eps=1e-05)
            )
            (conv3): Conv2d(
              1024, 1024, kernel_size=(1, 1), stride=(1, 1), bias=False
              (norm): FrozenBatchNorm2d(num_features=1024, eps=1e-05)
            )
          )
          (26): DeformBottleneckBlock(
            (conv1): Conv2d(
              1024, 1024, kernel_size=(1, 1), stride=(1, 1), bias=False
              (norm): FrozenBatchNorm2d(num_features=1024, eps=1e-05)
            )
            (conv2_offset): Conv2d(1024, 18, kernel_size=(3, 3), stride=(1, 1), padding=(1, 1))
            (conv2): DeformConv(
              in_channels=1024, out_channels=1024, kernel_size=(3, 3), stride=(1, 1), padding=(1, 1), dilation=(1, 1), groups=32, deformable_groups=1, bias=False
              (norm): FrozenBatchNorm2d(num_features=1024, eps=1e-05)
            )
            (conv3): Conv2d(
              1024, 1024, kernel_size=(1, 1), stride=(1, 1), bias=False
              (norm): FrozenBatchNorm2d(num_features=1024, eps=1e-05)
            )
          )
          (27): DeformBottleneckBlock(
            (conv1): Conv2d(
              1024, 1024, kernel_size=(1, 1), stride=(1, 1), bias=False
              (norm): FrozenBatchNorm2d(num_features=1024, eps=1e-05)
            )
            (conv2_offset): Conv2d(1024, 18, kernel_size=(3, 3), stride=(1, 1), padding=(1, 1))
            (conv2): DeformConv(
              in_channels=1024, out_channels=1024, kernel_size=(3, 3), stride=(1, 1), padding=(1, 1), dilation=(1, 1), groups=32, deformable_groups=1, bias=False
              (norm): FrozenBatchNorm2d(num_features=1024, eps=1e-05)
            )
            (conv3): Conv2d(
              1024, 1024, kernel_size=(1, 1), stride=(1, 1), bias=False
              (norm): FrozenBatchNorm2d(num_features=1024, eps=1e-05)
            )
          )
          (28): DeformBottleneckBlock(
            (conv1): Conv2d(
              1024, 1024, kernel_size=(1, 1), stride=(1, 1), bias=False
              (norm): FrozenBatchNorm2d(num_features=1024, eps=1e-05)
            )
            (conv2_offset): Conv2d(1024, 18, kernel_size=(3, 3), stride=(1, 1), padding=(1, 1))
            (conv2): DeformConv(
              in_channels=1024, out_channels=1024, kernel_size=(3, 3), stride=(1, 1), padding=(1, 1), dilation=(1, 1), groups=32, deformable_groups=1, bias=False
              (norm): FrozenBatchNorm2d(num_features=1024, eps=1e-05)
            )
            (conv3): Conv2d(
              1024, 1024, kernel_size=(1, 1), stride=(1, 1), bias=False
              (norm): FrozenBatchNorm2d(num_features=1024, eps=1e-05)
            )
          )
          (29): DeformBottleneckBlock(
            (conv1): Conv2d(
              1024, 1024, kernel_size=(1, 1), stride=(1, 1), bias=False
              (norm): FrozenBatchNorm2d(num_features=1024, eps=1e-05)
            )
            (conv2_offset): Conv2d(1024, 18, kernel_size=(3, 3), stride=(1, 1), padding=(1, 1))
            (conv2): DeformConv(
              in_channels=1024, out_channels=1024, kernel_size=(3, 3), stride=(1, 1), padding=(1, 1), dilation=(1, 1), groups=32, deformable_groups=1, bias=False
              (norm): FrozenBatchNorm2d(num_features=1024, eps=1e-05)
            )
            (conv3): Conv2d(
              1024, 1024, kernel_size=(1, 1), stride=(1, 1), bias=False
              (norm): FrozenBatchNorm2d(num_features=1024, eps=1e-05)
            )
          )
          (30): DeformBottleneckBlock(
            (conv1): Conv2d(
              1024, 1024, kernel_size=(1, 1), stride=(1, 1), bias=False
              (norm): FrozenBatchNorm2d(num_features=1024, eps=1e-05)
            )
            (conv2_offset): Conv2d(1024, 18, kernel_size=(3, 3), stride=(1, 1), padding=(1, 1))
            (conv2): DeformConv(
              in_channels=1024, out_channels=1024, kernel_size=(3, 3), stride=(1, 1), padding=(1, 1), dilation=(1, 1), groups=32, deformable_groups=1, bias=False
              (norm): FrozenBatchNorm2d(num_features=1024, eps=1e-05)
            )
            (conv3): Conv2d(
              1024, 1024, kernel_size=(1, 1), stride=(1, 1), bias=False
              (norm): FrozenBatchNorm2d(num_features=1024, eps=1e-05)
            )
          )
          (31): DeformBottleneckBlock(
            (conv1): Conv2d(
              1024, 1024, kernel_size=(1, 1), stride=(1, 1), bias=False
              (norm): FrozenBatchNorm2d(num_features=1024, eps=1e-05)
            )
            (conv2_offset): Conv2d(1024, 18, kernel_size=(3, 3), stride=(1, 1), padding=(1, 1))
            (conv2): DeformConv(
              in_channels=1024, out_channels=1024, kernel_size=(3, 3), stride=(1, 1), padding=(1, 1), dilation=(1, 1), groups=32, deformable_groups=1, bias=False
              (norm): FrozenBatchNorm2d(num_features=1024, eps=1e-05)
            )
            (conv3): Conv2d(
              1024, 1024, kernel_size=(1, 1), stride=(1, 1), bias=False
              (norm): FrozenBatchNorm2d(num_features=1024, eps=1e-05)
            )
          )
          (32): DeformBottleneckBlock(
            (conv1): Conv2d(
              1024, 1024, kernel_size=(1, 1), stride=(1, 1), bias=False
              (norm): FrozenBatchNorm2d(num_features=1024, eps=1e-05)
            )
            (conv2_offset): Conv2d(1024, 18, kernel_size=(3, 3), stride=(1, 1), padding=(1, 1))
            (conv2): DeformConv(
              in_channels=1024, out_channels=1024, kernel_size=(3, 3), stride=(1, 1), padding=(1, 1), dilation=(1, 1), groups=32, deformable_groups=1, bias=False
              (norm): FrozenBatchNorm2d(num_features=1024, eps=1e-05)
            )
            (conv3): Conv2d(
              1024, 1024, kernel_size=(1, 1), stride=(1, 1), bias=False
              (norm): FrozenBatchNorm2d(num_features=1024, eps=1e-05)
            )
          )
          (33): DeformBottleneckBlock(
            (conv1): Conv2d(
              1024, 1024, kernel_size=(1, 1), stride=(1, 1), bias=False
              (norm): FrozenBatchNorm2d(num_features=1024, eps=1e-05)
            )
            (conv2_offset): Conv2d(1024, 18, kernel_size=(3, 3), stride=(1, 1), padding=(1, 1))
            (conv2): DeformConv(
              in_channels=1024, out_channels=1024, kernel_size=(3, 3), stride=(1, 1), padding=(1, 1), dilation=(1, 1), groups=32, deformable_groups=1, bias=False
              (norm): FrozenBatchNorm2d(num_features=1024, eps=1e-05)
            )
            (conv3): Conv2d(
              1024, 1024, kernel_size=(1, 1), stride=(1, 1), bias=False
              (norm): FrozenBatchNorm2d(num_features=1024, eps=1e-05)
            )
          )
          (34): DeformBottleneckBlock(
            (conv1): Conv2d(
              1024, 1024, kernel_size=(1, 1), stride=(1, 1), bias=False
              (norm): FrozenBatchNorm2d(num_features=1024, eps=1e-05)
            )
            (conv2_offset): Conv2d(1024, 18, kernel_size=(3, 3), stride=(1, 1), padding=(1, 1))
            (conv2): DeformConv(
              in_channels=1024, out_channels=1024, kernel_size=(3, 3), stride=(1, 1), padding=(1, 1), dilation=(1, 1), groups=32, deformable_groups=1, bias=False
              (norm): FrozenBatchNorm2d(num_features=1024, eps=1e-05)
            )
            (conv3): Conv2d(
              1024, 1024, kernel_size=(1, 1), stride=(1, 1), bias=False
              (norm): FrozenBatchNorm2d(num_features=1024, eps=1e-05)
            )
          )
          (35): DeformBottleneckBlock(
            (conv1): Conv2d(
              1024, 1024, kernel_size=(1, 1), stride=(1, 1), bias=False
              (norm): FrozenBatchNorm2d(num_features=1024, eps=1e-05)
            )
            (conv2_offset): Conv2d(1024, 18, kernel_size=(3, 3), stride=(1, 1), padding=(1, 1))
            (conv2): DeformConv(
              in_channels=1024, out_channels=1024, kernel_size=(3, 3), stride=(1, 1), padding=(1, 1), dilation=(1, 1), groups=32, deformable_groups=1, bias=False
              (norm): FrozenBatchNorm2d(num_features=1024, eps=1e-05)
            )
            (conv3): Conv2d(
              1024, 1024, kernel_size=(1, 1), stride=(1, 1), bias=False
              (norm): FrozenBatchNorm2d(num_features=1024, eps=1e-05)
            )
          )
        )
        (res5): Sequential(
          (0): DeformBottleneckBlock(
            (shortcut): Conv2d(
              1024, 2048, kernel_size=(1, 1), stride=(2, 2), bias=False
              (norm): FrozenBatchNorm2d(num_features=2048, eps=1e-05)
            )
            (conv1): Conv2d(
              1024, 2048, kernel_size=(1, 1), stride=(1, 1), bias=False
              (norm): FrozenBatchNorm2d(num_features=2048, eps=1e-05)
            )
            (conv2_offset): Conv2d(2048, 18, kernel_size=(3, 3), stride=(2, 2), padding=(1, 1))
            (conv2): DeformConv(
              in_channels=2048, out_channels=2048, kernel_size=(3, 3), stride=(2, 2), padding=(1, 1), dilation=(1, 1), groups=32, deformable_groups=1, bias=False
              (norm): FrozenBatchNorm2d(num_features=2048, eps=1e-05)
            )
            (conv3): Conv2d(
              2048, 2048, kernel_size=(1, 1), stride=(1, 1), bias=False
              (norm): FrozenBatchNorm2d(num_features=2048, eps=1e-05)
            )
          )
          (1): DeformBottleneckBlock(
            (conv1): Conv2d(
              2048, 2048, kernel_size=(1, 1), stride=(1, 1), bias=False
              (norm): FrozenBatchNorm2d(num_features=2048, eps=1e-05)
            )
            (conv2_offset): Conv2d(2048, 18, kernel_size=(3, 3), stride=(1, 1), padding=(1, 1))
            (conv2): DeformConv(
              in_channels=2048, out_channels=2048, kernel_size=(3, 3), stride=(1, 1), padding=(1, 1), dilation=(1, 1), groups=32, deformable_groups=1, bias=False
              (norm): FrozenBatchNorm2d(num_features=2048, eps=1e-05)
            )
            (conv3): Conv2d(
              2048, 2048, kernel_size=(1, 1), stride=(1, 1), bias=False
              (norm): FrozenBatchNorm2d(num_features=2048, eps=1e-05)
            )
          )
          (2): DeformBottleneckBlock(
            (conv1): Conv2d(
              2048, 2048, kernel_size=(1, 1), stride=(1, 1), bias=False
              (norm): FrozenBatchNorm2d(num_features=2048, eps=1e-05)
            )
            (conv2_offset): Conv2d(2048, 18, kernel_size=(3, 3), stride=(1, 1), padding=(1, 1))
            (conv2): DeformConv(
              in_channels=2048, out_channels=2048, kernel_size=(3, 3), stride=(1, 1), padding=(1, 1), dilation=(1, 1), groups=32, deformable_groups=1, bias=False
              (norm): FrozenBatchNorm2d(num_features=2048, eps=1e-05)
            )
            (conv3): Conv2d(
              2048, 2048, kernel_size=(1, 1), stride=(1, 1), bias=False
              (norm): FrozenBatchNorm2d(num_features=2048, eps=1e-05)
            )
          )
        )
      )
    )
    (proposal_generator): RPN(
      (anchor_generator): DefaultAnchorGenerator(
        (cell_anchors): BufferList()
      )
      (rpn_head): StandardRPNHead(
        (conv): Conv2d(256, 256, kernel_size=(3, 3), stride=(1, 1), padding=(1, 1))
        (objectness_logits): Conv2d(256, 3, kernel_size=(1, 1), stride=(1, 1))
        (anchor_deltas): Conv2d(256, 12, kernel_size=(1, 1), stride=(1, 1))
      )
    )
    (roi_heads): CascadeROIHeads(
      (box_pooler): ROIPooler(
        (level_poolers): ModuleList(
          (0): ROIAlign(output_size=(7, 7), spatial_scale=0.25, sampling_ratio=0, aligned=True)
          (1): ROIAlign(output_size=(7, 7), spatial_scale=0.125, sampling_ratio=0, aligned=True)
          (2): ROIAlign(output_size=(7, 7), spatial_scale=0.0625, sampling_ratio=0, aligned=True)
          (3): ROIAlign(output_size=(7, 7), spatial_scale=0.03125, sampling_ratio=0, aligned=True)
        )
      )
      (box_head): ModuleList(
        (0): FastRCNNConvFCHead(
          (conv1): Conv2d(
            256, 256, kernel_size=(3, 3), stride=(1, 1), padding=(1, 1), bias=False
            (norm): GroupNorm(32, 256, eps=1e-05, affine=True)
          )
          (conv2): Conv2d(
            256, 256, kernel_size=(3, 3), stride=(1, 1), padding=(1, 1), bias=False
            (norm): GroupNorm(32, 256, eps=1e-05, affine=True)
          )
          (conv3): Conv2d(
            256, 256, kernel_size=(3, 3), stride=(1, 1), padding=(1, 1), bias=False
            (norm): GroupNorm(32, 256, eps=1e-05, affine=True)
          )
          (conv4): Conv2d(
            256, 256, kernel_size=(3, 3), stride=(1, 1), padding=(1, 1), bias=False
            (norm): GroupNorm(32, 256, eps=1e-05, affine=True)
          )
          (fc1): Linear(in_features=12544, out_features=1024, bias=True)
        )
        (1): FastRCNNConvFCHead(
          (conv1): Conv2d(
            256, 256, kernel_size=(3, 3), stride=(1, 1), padding=(1, 1), bias=False
            (norm): GroupNorm(32, 256, eps=1e-05, affine=True)
          )
          (conv2): Conv2d(
            256, 256, kernel_size=(3, 3), stride=(1, 1), padding=(1, 1), bias=False
            (norm): GroupNorm(32, 256, eps=1e-05, affine=True)
          )
          (conv3): Conv2d(
            256, 256, kernel_size=(3, 3), stride=(1, 1), padding=(1, 1), bias=False
            (norm): GroupNorm(32, 256, eps=1e-05, affine=True)
          )
          (conv4): Conv2d(
            256, 256, kernel_size=(3, 3), stride=(1, 1), padding=(1, 1), bias=False
            (norm): GroupNorm(32, 256, eps=1e-05, affine=True)
          )
          (fc1): Linear(in_features=12544, out_features=1024, bias=True)
        )
        (2): FastRCNNConvFCHead(
          (conv1): Conv2d(
            256, 256, kernel_size=(3, 3), stride=(1, 1), padding=(1, 1), bias=False
            (norm): GroupNorm(32, 256, eps=1e-05, affine=True)
          )
          (conv2): Conv2d(
            256, 256, kernel_size=(3, 3), stride=(1, 1), padding=(1, 1), bias=False
            (norm): GroupNorm(32, 256, eps=1e-05, affine=True)
          )
          (conv3): Conv2d(
            256, 256, kernel_size=(3, 3), stride=(1, 1), padding=(1, 1), bias=False
            (norm): GroupNorm(32, 256, eps=1e-05, affine=True)
          )
          (conv4): Conv2d(
            256, 256, kernel_size=(3, 3), stride=(1, 1), padding=(1, 1), bias=False
            (norm): GroupNorm(32, 256, eps=1e-05, affine=True)
          )
          (fc1): Linear(in_features=12544, out_features=1024, bias=True)
        )
      )
      (box_predictor): ModuleList(
        (0): FastRCNNOutputLayers(
          (cls_score): Linear(in_features=1024, out_features=5, bias=True)
          (bbox_pred): Linear(in_features=1024, out_features=4, bias=True)
        )
        (1): FastRCNNOutputLayers(
          (cls_score): Linear(in_features=1024, out_features=5, bias=True)
          (bbox_pred): Linear(in_features=1024, out_features=4, bias=True)
        )
        (2): FastRCNNOutputLayers(
          (cls_score): Linear(in_features=1024, out_features=5, bias=True)
          (bbox_pred): Linear(in_features=1024, out_features=4, bias=True)
        )
      )
    )
  )
) Epochs: 0 / 30 learning_rate: 1e-06

  0%|          | 0/30 [00:00<?, ?epoch/s]

[0]Epoch 1 train:   0%|          | 0.00/8.18k [00:00<?, ?images/s][Aload pretrained weights https://dl.fbaipublicfiles.com/detectron2/Misc/cascade_mask_rcnn_X_152_32x8d_FPN_IN5k_gn_dconv/18131413/model_0039999_e76410.pkl
load pretrained weights https://dl.fbaipublicfiles.com/detectron2/Misc/cascade_mask_rcnn_X_152_32x8d_FPN_IN5k_gn_dconv/18131413/model_0039999_e76410.pkl
…
